models/meta_net_13.pth (torch, 68848 bytes, 4 tensors)

net.linear1.weight f2 [32, 512]
000000 21 a5 88 a9 b6 22 77 1f 3c a6 5a 99 be a8 bc 26
       -0.02003 -0.0432 0.01311 0.00729 -0.02435 -0.002613 -0.03705 0.0263
000010 57 9e 0d a8 04 a8 ad a8 eb 22 c7 27 02 25 32 29
       -0.00619 -0.03165 -0.03137 -0.03653 0.01351 0.03038 0.01956 0.0406
000020 48 29 43 8c 1f 28 12 10 76 a9 2c 28 c1 26 85 24
       0.04126 -0.00026 0.0322 0.000497 -0.04266 0.0326 0.02638 0.01765
000030 7e 27 0b 29 29 a6 18 a9 6d a9 a0 28 af 98 69 29
       0.02927 0.0394 -0.02406 -0.0398 -0.0424 0.03613 -0.002287 0.04227
000040 c7 20 1e 98 42 a9 c5 20 90 a7 65 29 6b 20 35 a8
       0.00933 -0.00201 -0.04108 0.009315 -0.02954 0.04214 0.00863 -0.03287
000050 d4 21 b1 a6 1f 28 53 29 80 a5 ac a6 80 a9 60 27
       0.01138 -0.02614 0.0322 0.0416 -0.02148 -0.02606 -0.04297 0.02881
000060 da a5 58 a5 44 a9 1c 16 2a 28 f1 28 09 28 ec 8c
       -0.02286 -0.02087 -0.04114 0.001492 0.03253 0.0386 0.03152 -0.0003004
000070 95 22 52 21 92 25 70 15 c8 27 5f a6 d5 20 03 a9
       0.012856 0.01039 0.02176 0.0013275 0.0304 -0.02489 0.00944 -0.03915
000080 0b a6 91 25 cd a3 f1 9a fd 1d c7 a8 74 a3 26 a6
       -0.0236 0.02174 -0.015236 -0.00339 0.005848 -0.03732 -0.01456 -0.02402
000090 69 a9 6e 29 7b a8 70 a7 bb 1c 61 25 11 28 38 a8
       -0.04227 0.04242 -0.035 -0.02905 0.00462 0.02101 0.03177 -0.03296
0000a0 8f a1 d8 98 b1 a4 f1 27 ae a5 08 27 7d 26 93 26
       -0.01086 -0.002365 -0.01833 0.03102 -0.02219 0.02747 0.02534 0.02568
0000b0 03 a8 5a 25 bb 18 7b 21 26 21 40 a8 67 a9 c7 a8
       -0.03134 0.0209 0.00231 0.010704 0.010056 -0.0332 -0.0422 -0.03732
0000c0 0e a0 42 29 f0 a4 72 28 52 26 39 29 8b 24 a9 28
       -0.00792 0.04108 -0.01929 0.03473 0.02469 0.0408 0.01775 0.0364
0000d0 7d 24 9d 24 1b a6 0b 23 98 a0 f4 20 61 a8 d6 a2
       0.01753 0.01802 -0.02385 0.013756 -0.00897 0.009674 -0.0342 -0.01335
0000e0 78 28 51 a4 06 a9 a9 a9 b6 20 d4 a8 b9 27 36 21
       0.0349 -0.01686 -0.03925 -0.04422 0.0092 -0.03772 0.03017 0.01018
0000f0 b0 a5 7f 26 b8 99 b5 26 20 21 69 a2 e9 a5 b3 28
       -0.02222 0.02538 -0.002792 0.0262 0.01001 -0.01252 -0.02309 0.0367
000100 21 a8 4b a9 e9 28 af 28 74 a7 c8 25 df 28 3e a4
       -0.03226 -0.04135 0.03836 0.0366 -0.02911 0.02258 0.03806 -0.01657
000110 39 27 52 18 fa 19 b2 a4 c3 a4 fe 24 f2 a4 f3 25
       0.02821 0.00211 0.002918 -0.01834 -0.0186 0.0195 -0.01932 0.02324
000120 f3 9a 8c 27 62 27 e6 1a f6 9e 11 a6 b7 28 96 1e
       -0.003393 0.02948 0.02884 0.003368 -0.006798 -0.0237 0.03683 0.00643
000130 0d 9d 2f a4 6a a8 ed a8 74 a6 21 a5 86 20 d4 a1
       -0.004932 -0.01634 -0.0345 -0.03848 -0.0252 -0.02003 0.008835 -0.01138
000140 c9 a1 50 25 98 a9 40 a4 66 9c f0 26 89 28 79 29
       -0.0113 0.02075 -0.0437 -0.0166 -0.004295 0.0271 0.03543 0.04276
000150 fa a8 93 25 a8 1d 9f 28 cf a6 2f a9 7e 29 7d 21
       -0.03888 0.02177 0.005524 0.0361 -0.0266 -0.0405 0.0429 0.01072
000160 6d a4 40 a9 6c 29 f7 26 b9 97 44 a9 e2 28 72 a7
       -0.01729 -0.04102 0.04236 0.0272 -0.001885 -0.04114 0.03815 -0.02908
000170 6b 24 86 a8 02 21 61 25 4f 17 06 a4 4c a8 2e a4
       0.01726 -0.03534 0.00978 0.02101 0.001784 -0.01572 -0.03357 -0.01633
000180 33 a6 4f 25 39 a7 ad 24 88 a8 52 a2 20 a8 30 29
       -0.02422 0.02074 -0.02821 0.01826 -0.0354 -0.012344 -0.03223 0.04053
000190 c7 a4 8a a4 1d 23 b2 a0 72 1e 9f 9d 5f 98 39 29
       -0.01866 -0.01773 0.01389 -0.00917 0.006294 -0.00549 -0.002134 0.0408
0001a0 5a 9f 41 a5 fe 20 4a 28 de 27 87 a2 25 28 8e a9
       -0.00718 -0.02052 0.00975 0.0335 0.03073 -0.01275 0.03238 -0.0434
0001b0 48 26 47 29 15 23 1e 20 3a 29 aa 28 5e 25 5e 22
       0.02454 0.04123 0.01383 0.00804 0.04083 0.03644 0.02097 0.012436
0001c0 17 25 b6 22 fc a4 21 97 47 a9 9f a7 74 1a 49 28
       0.01988 0.01311 -0.01947 -0.00174 -0.04123 -0.02977 0.00315 0.03348
0001d0 04 27 36 24 cb 15 9e a4 5f a4 fd a7 1a a9 bd 24
       0.0274 0.01645 0.001414 -0.01804 -0.01707 -0.0312 -0.03986 0.01851
0001e0 71 a2 98 28 a0 20 c1 1d b5 28 16 a5 23 1b 30 24
       -0.01258 0.0359 0.00903 0.00562 0.03677 -0.01987 0.003485 0.01636
0001f0 e4 28 17 99 24 27 d7 28 69 28 09 29 fd a8 2b a9
       0.0382 -0.002485 0.0279 0.0378 0.03445 0.03934 -0.03897 -0.04037

net.linear1.bias f2 [32]
000000 89 2d 4a a9 20 30 65 a7 7f 2d ca 2e 3d a9 12 a2
       0.0865 -0.04132 0.1289 -0.02888 0.0859 0.1061 -0.04092 -0.011856
000010 08 a5 f1 27 a6 2e 3c 2c ff 15 f0 22 a4 a7 22 25
       -0.01965 0.03102 0.1039 0.06616 0.001464 0.01355 -0.02985 0.02005
000020 16 9e 8d a1 a2 a7 38 1c c2 24 9f a9 c0 a9 44 a5
       -0.005943 -0.01084 -0.02982 0.00412 0.01859 -0.0439 -0.04492 -0.02057
000030 fb a3 3a a3 c3 27 75 2f cf a0 d5 a4 79 a4 06 25
       -0.01559 -0.014114 0.03032 0.1165 -0.00939 -0.01888 -0.01747 0.01962

net.linear2.weight f2 [512, 32]
000000 40 b0 c7 b0 b9 ad b8 26 4d a8 96 31 27 30 64 2b
       -0.1328 -0.1493 -0.0894 0.02625 -0.0336 0.1746 0.1298 0.05774
000010 88 2c b5 28 c2 ab 6d 30 81 30 7b af 24 2e fa 2b
       0.0708 0.03677 -0.0606 0.1383 0.1407 -0.1169 0.09595 0.06232
000020 63 2e c3 a9 cb a7 92 b0 75 2c a1 ae 58 b1 88 2c
       0.0998 -0.045 -0.03044 -0.1428 0.06964 -0.1036 -0.167 0.0708
000030 c1 aa 78 21 bc a2 83 2f 74 af a8 a4 eb b0 71 30
       -0.05276 0.01068 -0.01315 0.1174 -0.11646 -0.01819 -0.1537 0.1388
000040 fb 30 28 af 0e af 7b b0 85 b0 2d 25 b1 ae f4 30
       0.1556 -0.1118 -0.1102 -0.14 -0.1412 0.02022 -0.10455 0.1548
000050 74 2b 8b 23 91 ac 48 31 a6 aa 6e 2b 55 ad f4 a2
       0.05823 0.01473 -0.07135 0.165 -0.05194 0.05804 -0.0833 -0.01358
000060 ed ac 12 2d 76 af 4c 2a 19 2e bd ad 61 b0 e8 2e
       -0.07697 0.0792 -0.1166 0.0492 0.0953 -0.08966 -0.1368 0.1079
000070 5b 30 12 2e c6 ab 4a af 87 31 e4 a7 1c 28 f1 2b
       0.1361 0.09485 -0.06073 -0.1139 0.1727 -0.03082 0.0321 0.06204
000080 6d 2e e7 b0 c2 28 79 ac 03 ad e3 2f 13 31 f8 a8
       0.1004 -0.1532 0.03717 -0.0699 -0.0783 0.1232 0.1586 -0.03882
000090 7d 31 85 26 3d 2c 4e 18 5d 2b 04 aa 67 31 99 a8
       0.1715 0.02547 0.0662 0.002102 0.05753 -0.047 0.1688 -0.03592
0000a0 05 2c 58 30 86 29 67 30 d7 28 e9 30 c8 28 11 2b
       0.0628 0.1357 0.04315 0.1376 0.0378 0.1534 0.03735 0.0552
0000b0 a5 2c ba aa 53 31 47 30 5f b0 4a 99 13 28 23 ad
       0.0726 -0.05255 0.1664 0.1337 -0.1366 -0.002583 0.03183 -0.08026
0000c0 e5 a9 de 30 f6 af 7a 1a ea 2b d5 b0 14 22 ff a8
       -0.04605 0.1521 -0.1244 0.003162 0.06183 -0.151 0.01187 -0.03903
0000d0 c7 b0 c0 2e d4 a4 a2 b1 24 30 96 31 82 b0 a1 a4
       -0.1493 0.10547 -0.01886 -0.176 0.1294 0.1746 -0.1409 -0.01808
0000e0 90 ae 9f 2c 23 31 23 2c 81 b0 8c 2e 07 29 c6 2e
       -0.10254 0.0722 0.1605 0.06464 -0.1407 0.1023 0.03928 0.10583
0000f0 9e 2f 2e 28 c8 2e 34 b0 56 a0 e1 25 22 90 ed af
       0.119 0.03265 0.10596 -0.1313 -0.00847 0.02296 -0.0005045 -0.12384
000100 81 af b6 2f e7 b0 14 2c 70 30 67 28 9f ac 0b ad
       -0.11725 0.1205 -0.1532 0.0637 0.1387 0.0344 -0.0722 -0.0788
000110 43 ad c6 b0 bd ae f2 30 ba 2e b9 30 f8 b0 9e 2c
       -0.0822 -0.1492 -0.1053 0.1545 0.1051 0.1476 -0.1553 0.07214
000120 d8 ae 3f 30 96 30 02 b1 c6 b0 78 a4 81 2d ab ab
       -0.10693 0.1327 0.1433 -0.1565 -0.1492 -0.01746 0.086 -0.0599
000130 be ac 38 ae 1b 2e e5 af e6 af d7 21 72 31 64 9a
       -0.0741 -0.09717 0.0954 -0.12335 -0.1234 0.011406 0.1702 -0.00312
000140 11 29 1f 2f bd a4 db ab da 29 f3 30 37 22 0b ad
       0.03958 0.11127 -0.01851 -0.06137 0.04572 0.1547 0.01214 -0.0788
000150 86 25 d8 ab ee 23 28 af c1 22 a5 2b a5 24 cc 29
       0.02158 -0.06128 0.01549 -0.1118 0.01319 0.05972 0.01814 0.0453
000160 71 b0 8e 31 93 2c ef 29 79 af 26 2c e1 98 fd ae
       -0.1388 0.1736 0.0715 0.04636 -0.11676 0.0648 -0.002382 -0.1092
000170 76 2a 24 a8 f4 ab e0 ac 6d b0 be ac d4 b0 0d 2d
       0.05048 -0.03235 -0.06213 -0.0762 -0.1383 -0.0741 -0.1509 0.0789
000180 29 2f 48 af f4 30 46 b0 9e b1 47 b0 41 30 43 31
       0.1119 -0.1138 0.1548 -0.1335 -0.1755 -0.1337 0.1329 0.1644
000190 52 b0 cf 24 79 2d 37 b1 bd ae fe b0 f6 ad 31 af
       -0.135 0.01878 0.0855 -0.163 -0.1053 -0.156 -0.09314 -0.11237
0001a0 fa ae f8 28 41 b0 86 ac 76 30 52 a3 6b b1 03 9d
       -0.109 0.03882 -0.1329 -0.0707 0.1394 -0.0143 -0.1693 -0.004894
0001b0 ec a7 0d 31 49 30 3d 24 64 a9 bf a1 12 b1 b6 aa
       -0.03094 0.1578 0.1339 0.01656 -0.0421 -0.01122 -0.1584 -0.05243
0001c0 32 b1 c7 9b 1d 2e 1b ad 4f af 23 b1 92 ac 3d 28
       -0.1624 -0.003798 0.0955 -0.0798 -0.1142 -0.1605 -0.0714 0.0331
0001d0 e0 ae 50 a9 cd b0 23 b0 51 b1 35 ad 2a 31 45 2f
       -0.1074 -0.0415 -0.15 -0.1293 -0.1661 -0.08136 0.1614 0.1136
0001e0 0c b0 13 30 bc ae e4 af ff 22 56 1e 93 ab 71 ad
       -0.1265 0.1273 -0.1052 -0.1233 0.013664 0.006187 -0.05917 -0.085
0001f0 b5 2a 8f 29 0b 9c 81 ad bf a4 da ad e8 2d 2d 2d
       0.0524 0.04343 -0.00395 -0.086 -0.01854 -0.09143 0.0923 0.0809

net.linear2.bias f2 [512]
000000 08 a8 de 1d 3d 29 a9 b3 b3 af c8 a8 38 aa c5 ac
       -0.0315 0.00573 0.04092 -0.2394 -0.1203 -0.03735 -0.04858 -0.0745
000010 7d a5 cc 2c e6 af 7d 2a e1 ad 0e a0 ba 2b 68 30
       -0.02144 0.07495 -0.1234 0.0507 -0.09186 -0.00792 0.06036 0.1377
000020 a5 af 2e a9 53 af 74 2a b2 29 ef af c1 ad e0 1e
       -0.11945 -0.04047 -0.11444 0.0504 0.0445 -0.12396 -0.0899 0.006714
000030 31 b0 5b 29 0c 2e 7f 30 e0 26 b8 ab 54 2f 26 b0
       -0.131 0.04184 0.0945 0.1405 0.02686 -0.0603 0.1145 -0.1296
000040 21 a8 fe 25 63 b1 3f 2f 4f 2c fa b4 44 2b 98 b0
       -0.03226 0.0234 -0.1683 0.1132 0.0673 -0.311 0.05676 -0.1436
000050 44 30 28 aa 8c ac 99 ad 52 2e 15 b3 75 aa 46 b0
       0.1333 -0.0481 -0.07104 -0.08746 0.09875 -0.2213 -0.05045 -0.1335
000060 4f b0 38 aa 99 ab aa ae 32 ac d3 2c 83 2c 6b 22
       -0.1346 -0.04858 -0.05936 -0.1041 -0.06555 0.0754 0.0705 0.012535
000070 5c 24 5d b2 15 2d bd ad a1 30 23 30 f6 25 1a af
       0.01703 -0.1989 0.0794 -0.08966 0.1447 0.1293 0.02328 -0.11096
000080 56 b3 c2 2b 4a b2 a0 ae eb 2f 6a 2c 86 33 3f ab
       -0.2292 0.0606 -0.1965 -0.1035 0.1237 0.069 0.2351 -0.0566
000090 96 b1 04 ae 77 a5 75 b4 73 30 55 25 c6 28 46 b1
       -0.1746 -0.094 -0.02135 -0.2786 0.139 0.02083 0.0373 -0.1648
0000a0 9c a9 5e aa 23 23 98 2d cd 30 72 ac 1a 31 4f 2e
       -0.04382 -0.04974 0.01394 0.0874 0.15 -0.06946 0.1594 0.0986
0000b0 c9 2e a0 af 0e a3 fc 25 96 a5 7b 2c 35 2c 01 a5
       0.106 -0.11914 -0.01378 0.02338 -0.02182 0.07 0.06573 -0.01955
0000c0 fe 2c 04 a4 dd ae 7d 2d 08 b3 42 ab 25 b1 5f af
       0.078 -0.01569 -0.10724 0.08575 -0.2197 -0.0567 -0.1608 -0.1152
0000d0 a2 31 e6 30 4f 31 b5 9d d7 25 2e b1 86 2f 32 2e
       0.176 0.1531 0.1659 -0.005573 0.02281 -0.1619 0.11755 0.0968
0000e0 5e 2c e6 ac e4 af e5 af 37 b0 1c 21 5c ac dc 2e
       0.06824 -0.07654 -0.1233 -0.12335 -0.1317 0.00998 -0.0681 0.1072
0000f0 5c 2c c5 14 12 2b 25 aa e9 ac 30 30 18 ae 0a 2b
       0.0681 0.001164 0.05524 -0.048 -0.0767 0.1309 -0.0952 0.055
000100 4c 2d 2a ab 7b 29 f4 aa a5 2f b6 b0 5d b1 27 34
       0.08276 -0.05597 0.04282 -0.05432 0.11945 -0.1472 -0.1676 0.2595
000110 2e 2a 47 2e aa 2e 3f a4 90 29 22 ab 04 a9 dc a9
       0.04828 0.0981 0.1041 -0.01659 0.04346 -0.05573 -0.03918 -0.04578
000120 c2 27 f9 28 0d ac 78 2f 06 a1 94 a9 10 28 18 9e
       0.0303 0.03885 -0.0633 0.1167 -0.00981 -0.04358 0.03174 -0.00595
000130 f5 31 cc ab 47 af 7e 29 75 ac e3 29 ac 30 d3 20
       0.1862 -0.0609 -0.1137 0.0429 -0.06964 0.046 0.146 0.00942
000140 dd b0 59 ae 0c b0 69 b0 50 2a 95 b0 ff a5 48 af
       -0.152 -0.0992 -0.1265 -0.1378 0.04932 -0.1432 -0.02342 -0.1138
000150 94 28 9f 32 92 aa 78 26 31 ab 96 2d 13 2a 93 ad
       0.03577 0.2069 -0.05133 0.02527 -0.05618 0.0873 0.04745 -0.0871
000160 ab a3 30 2d 59 30 ba b2 d7 2a fd a1 93 28 c4 a7
       -0.01498 0.08105 0.1359 -0.2102 0.05344 -0.011696 0.03574 -0.03033
000170 d4 2e 0a ae f4 2a 23 a8 e7 25 92 22 61 b0 88 2e
       0.1067 -0.09436 0.05432 -0.03232 0.02306 0.01283 -0.1368 0.10205
000180 58 2e 31 a9 dc 2d 61 32 82 a9 21 2f cb ab ce 25
       0.0991 -0.04056 0.09155 0.1993 -0.04303 0.1114 -0.06088 0.02267
000190 88 27 81 ad 8e 2d c2 2a ca ac b5 25 af aa e4 a9
       0.02942 -0.086 0.0868 0.0528 -0.0748 0.0223 -0.05222 -0.04602
0001a0 9c 1c 5e 28 e6 b1 5e 2c d7 1d 96 2a d6 a6 93 24
       0.0045 0.03412 -0.1843 0.06824 0.005703 0.05145 -0.0267 0.01787
0001b0 12 2c 07 a3 d5 a9 80 b2 91 a4 f2 b0 7f a7 a6 af
       0.0636 -0.013725 -0.04556 -0.2031 -0.01784 -0.1545 -0.02928 -0.1195
0001c0 44 2e 89 af b2 2e 21 a9 1c b0 10 30 07 ab 80 26
       0.0979 -0.11774 0.1046 -0.04007 -0.1284 0.127 -0.0549 0.02539
0001d0 34 b4 63 a4 02 24 3f 2d ab ab 12 aa 88 b2 54 ad
       -0.2627 -0.01714 0.01566 0.082 -0.0599 -0.04742 -0.2041 -0.08325
0001e0 e4 2c 64 30 8d 2d 70 28 c7 a7 73 ad 39 1e f6 2b
       0.0764 0.1372 0.08673 0.03467 -0.03038 -0.08514 0.006077 0.0622
0001f0 93 af 9f 29 c4 aa 49 a7 db 2a 82 23 4e 2f 19 1d
       -0.11835 0.0439 -0.05286 -0.02846 0.05356 0.01466 0.11414 0.00498
